RepRight/backend/your_model.tflite (tflite, 87108 bytes, 6 tensors)

arith.constant f4 [3, 64]
0	0x3e090767	0.1338173
1	0x3d687f04	0.056761757
2	0xbd3c2cdb	-0.045941215
3	0xbe451185	-0.19244964
4	0x3e6d68fe	0.23184583
5	0xbd3ae28c	-0.04562621
6	0xbe8f0017	-0.27929756
7	0x3ea8d24c	0.32972944
8	0x3e858e68	0.2608521
9	0xbebe61f3	-0.37184104
10	0xbe7974d1	-0.24360968
11	0xbea726f1	-0.32646897
12	0x3c04b9e8	0.008100964
13	0xbeb9fa7c	-0.36323917
14	0x3edce0ac	0.4314016
15	0x3c27f677	0.010251633
16	0xbe2c518a	-0.1682798
17	0x3e94a5ec	0.29032838
18	0x3e9ee65f	0.31035134
19	0xbe930793	-0.28716716
20	0xbe27e37a	-0.16395369
21	0x3e8ee1cb	0.2790664
22	0x3e86ab60	0.26302624
23	0x3eb15584	0.34635556
24	0x3d1f2251	0.038851086
25	0x3dc003a8	0.093756974
26	0xbcbf9e73	-0.023390984
27	0xbc54ddd6	-0.012992343
28	0xbe0d10a7	-0.13775884
29	0x3e32bd01	0.17454912
30	0xbde19b99	-0.11016006
31	0xbe23b79c	-0.1598801
32	0xbd2c710e	-0.042100005
33	0x3e6631af	0.2247989
34	0x3c3b522e	0.011433167
35	0x3e2dcf6d	0.16973658
36	0xbe6b7a76	-0.22995934
37	0x3e142a91	0.14469363
38	0xbe8a4c7f	-0.27011487
39	0x3e8376b0	0.2567649
40	0x3e154482	0.14576915
41	0x3e7c94e2	0.2466617
42	0x3e987752	0.29778534
43	0x3e7c9ae5	0.24668463
44	0xbe3e82f7	-0.18604647
45	0xbe82445a	-0.25442773
46	0x3e7c5637	0.24642263
47	0xbde502a8	-0.11182147
48	0xbe8562ed	-0.26052037
49	0xbc317114	-0.010830183
50	0x3e5366da	0.20644704
51	0x3e182100	0.14856339
52	0x3e1cf111	0.15326335
53	0xba4289d5	-0.0007421051
54	0x3ec2bada	0.3803318
55	0xbdd74245	-0.10510687
56	0xbcc4b593	-0.024012363
57	0xbdc4e8ba	-0.096147016
58	0x3e5e5a2c	0.21714085
59	0x3e6ed7ca	0.23324504
60	0x3dff377e	0.12461756
61	0x3e0a311d	0.13495298
62	0x3e894264	0.26808465
63	0x3e600c87	0.21879779
64	0xbcd35823	-0.025798863
65	0xbd428908	-0.047493964
66	0x3e1489a7	0.14505635
67	0x3e84b9a9	0.25922897
68	0x3eaacb77	0.33358356
69	0x3d65ef92	0.056136675
70	0xbda7ed0e	-0.081995115
71	0x3dd4ba98	0.103871524
72	0xbe86e55a	-0.26346856
73	0xbda50a9f	-0.080586664
74	0x3d9e6a30	0.077350974
75	0x3e171b26	0.1475645
76	0xbecb4b22	-0.3970576
77	0x3e82b08d	0.25525323
78	0x3d1fd66a	0.03902284
79	0xbe9ca459	-0.30594137
80	0x3d9e0239	0.07715268
81	0x3e76d7d0	0.24105763
82	0xbd771c62	-0.060329802
83	0xbd245b04	-0.04012586
84	0xbe84f9f6	-0.25971955
85	0xbe6aaccf	-0.22917484
86	0x3d728c0b	0.059215587
87	0xbe97645b	-0.29568753
88	0x3ef91761	0.4865065
89	0xbe9659d7	-0.29365417
90	0x3e6ff1fe	0.23432156
91	0xbe625319	-0.22102012
92	0x3e361981	0.17783166
93	0x3e80ebb0	0.25179815
94	0x3d0ed016	0.034866415
95	0xbeb3f816	-0.35150212
96	0xbe4ec8f1	-0.2019384
97	0xbd2c9094	-0.042130068
98	0xbe562a79	-0.2091464
99	0x3e38a933	0.18033294
100	0x3da49ce1	0.08037735
101	0xbeacd8d8	-0.3375919
102	0xbd3db094	-0.046310976
103	0x3b46586d	0.0030265108
104	0x3e960cf9	0.29306772
105	0xbe762ce8	-0.24040568
106	0xbcfc9491	-0.03083256
107	0xbe7aa60e	-0.24477407
108	0x3e4f24b5	0.20228846
109	0x3ecae22c	0.3962568
110	0x3ebd8bc7	0.37020704
111	0x3e8ebb76	0.27877396
112	0xbe83b22e	-0.25721878
113	0xbec1e076	-0.37866563
114	0xbeaeef1a	-0.34166795
115	0x3e949287	0.29018041
116	0xbef14347	-0.4712164
117	0xbe86c27d	-0.26320258
118	0xbeb5afb6	-0.3548562
119	0x3e470c19	0.19438209
120	0x3e37b9fb	0.1794204
121	0xbdbbbff6	-0.09167473
122	0xbeb267eb	-0.34844908
123	0xbeaca6dc	-0.33721054
124	0xbe294a29	-0.16532196
125	0xbdf3d9f6	-0.11906807
126	0x3e355bac	0.17710751
127	0x3e47ec8b	0.19523828
128	0xbc893be1	-0.016752185
129	0xbe5e2233	-0.21692733
130	0xbe22c25a	-0.15894452
131	0x3eb1d809	0.34735134
132	0xbc33262d	-0.010934395
133	0xbebc2f21	-0.36754707
134	0xbea6cfdc	-0.3258046
135	0xbe43c42e	-0.19117805
136	0x3cc47ca0	0.023985207
137	0xbde52d03	-0.11190226
138	0x3ddebe76	0.10876171
139	0x3d865338	0.065588415
140	0x3e2efcf5	0.17088683
141	0x3e39ef19	0.18157615
142	0xbdc20e62	-0.094753996
143	0x3e67bfc0	0.2263174
144	0x3e8c359c	0.2738465
145	0xbde6f512	-0.11277212
146	0xbeb750c6	-0.35803813
147	0x3eb8cefd	0.3609542
148	0x3e1ac1ee	0.15113041
149	0xbe494883	-0.19656567
150	0xbeacbfbe	-0.33740038
151	0xbe2e8b56	-0.1704534
152	0xbec159ab	-0.37763724
153	0xbec37fff	-0.3818359
154	0xbc574bb6	-0.0131406095
155	0x3e791874	0.24325734
156	0x3e34e7ea	0.17666593
157	0xbe744703	-0.23855214
158	0xbd426048	-0.047455102
159	0xbe3783f8	-0.17921436
160	0xbd4809fb	-0.048837643
161	0xbe8acb8d	-0.27108422
162	0x3eae49d4	0.340407
163	0x3e0f2943	0.13980584
164	0x3e788e8c	0.24273127
165	0xbdb73cf2	-0.08947171
166	0x3e5a0da6	0.21294269
167	0xbe76a019	-0.2408451
168	0xbe4fff22	-0.20312169
169	0xbeaf9f6a	-0.3430131
170	0xbe920886	-0.28522128
171	0xbe2ce66b	-0.16884772
172	0xbe3839ae	-0.17990753
173	0xbec43464	-0.3832122
174	0xbd6d50a2	-0.057938226
175	0x3a2d0a00	0.00066009164
176	0x3de061e6	0.10956173
177	0x3c3b6a77	0.011438957
178	0x3ea15174	0.31507456
179	0x3de384fe	0.111093506
180	0x3e6b4b82	0.22978023
181	0xbba513b9	-0.0050377515
182	0xbe18d579	-0.14925183
183	0x3d1bc3dd	0.038028587
184	0x3e468802	0.1938782
185	0x3e01f544	0.12691218
186	0xbe107f78	-0.14111125
187	0xbd90932c	-0.07059321
188	0x3e7967c1	0.24355985
189	0x3c1ea5b7	0.009683064
190	0xbea0e686	-0.31425875
191	0x3d740d6e	0.05958312

arith.constant1 f4 [64, 128]
0	0x3dc725ae	0.09723984
1	0xbdcd9b3c	-0.10039374
2	0xbe338d4d	-0.1753437
3	0xbd71d0ff	-0.059037205
4	0xbe079c0f	-0.13243125
5	0xbd187788	-0.03722337
6	0x3d4d3ad8	0.050104946
7	0xbd4ed81a	-0.05049906
8	0x3d723a57	0.05913767
9	0xbc01e79a	-0.007928753
10	0xbc8561f5	-0.016282061
11	0xbe31808f	-0.17334197
12	0x3c97cd3f	0.018530486
13	0x3d8ff218	0.070285976
14	0xbe44b101	-0.19208147
15	0xbd9f5e4f	-0.0778166
16	0xbd025b65	-0.031825442
17	0xbd39d2ca	-0.04536704
18	0x3e15e0d8	0.14636552
19	0xbd4ee34a	-0.05050973
20	0x3e0d5ed4	0.13805705
21	0x3e10098b	0.1406614
22	0x3db663a1	0.089057215
23	0x3e19e867	0.1503006
24	0xbd3749f7	-0.044748273
25	0x3de3b052	0.11117615
26	0x3da3a464	0.079903394
27	0x3cbeee0f	0.023306875
28	0x3d278c93	0.040905546
29	0x3dc411fa	0.09573741
30	0xbd010629	-0.031500015
31	0xbd3a7386	-0.045520328
32	0xbe0cde5c	-0.13756698
33	0x3d10d235	0.03535672
34	0xbe3f39f2	-0.18674448
35	0xbbc45517	-0.005991589
36	0xbd8af2fe	-0.06784628
37	0xbd89c016	-0.067260906
38	0x3d9e4ebd	0.07729862
39	0x3e200116	0.15625414
40	0x3c912b58	0.017720863
41	0xbe274e7d	-0.16338535
42	0xbe13b536	-0.14424595
43	0x3daeb1bd	0.08529995
44	0xbe202105	-0.15637596
45	0x3e0f40ff	0.13989638
46	0xbc7899ea	-0.015173415
47	0xbe277974	-0.16354924
48	0x3e073c1b	0.13206522
49	0xbd647adf	-0.05578124
50	0xbe1974e6	-0.14986
51	0xbdea9c6a	-0.11455615
52	0xbd8a1841	-0.06742907
53	0xbdb213fa	-0.086952165
54	0x3da13803	0.078720115
55	0xbc8878e6	-0.016659211
56	0xbdfa9514	-0.12235466
57	0x3dba1c5b	0.090874396
58	0x3d43c709	0.047797237
59	0x3daea52c	0.08527598
60	0xbddd0f12	-0.1079389
61	0xbd7e621f	-0.062105294
62	0xbdce9627	-0.10087233
63	0xbd9c641d	-0.076362826
64	0xbd64c1be	-0.05584883
65	0xbdd80793	-0.1054832
66	0x3dd0c902	0.10194589
67	0xbdf9208c	-0.12164411
68	0xbd66c370	-0.056338727
69	0xbe1f592e	-0.15561363
70	0x3c296596	0.010339161
71	0x3dc8217e	0.09772013
72	0xbd738f37	-0.059462752
73	0xbd2d09b1	-0.04224557
74	0x3d5a7aa4	0.053339615
75	0xbc42008e	-0.011840953
76	0xbe2442c4	-0.16041094
77	0x3dea168f	0.11430084
78	0xbcb9d0d5	-0.022682587
79	0x3dd4ab32	0.103842154
80	0x3d801947	0.06254821
81	0xbdc68265	-0.096928395
82	0x3e0b4c48	0.13603318
83	0xbc4f9ef3	-0.012672174
84	0xbe16bbaa	-0.14720026
85	0xbde6dffb	-0.1127319
86	0x3d496cb2	0.049175926
87	0xbdd51ef9	-0.10406298
88	0xbdcf3024	-0.10116604
89	0x3cb35725	0.02189214
90	0xbe42ebc4	-0.1903525
91	0xbe06fc9c	-0.131823
92	0x3dc219a0	0.09477544
93	0xbe000ec5	-0.12505634
94	0xbdaac9df	-0.08339285
95	0x3c6a40a9	0.014297643
96	0x3e119948	0.14218628
97	0x3c860a39	0.016362296
98	0x3e04b743	0.12960534
99	0xbce23e8c	-0.027617715
100	0xbc591446	-0.0132494625
101	0x3da69c0f	0.081352346
102	0x3e226e04	0.1586228
103	0x3dae2cb0	0.08504617
104	0x3dbf2535	0.093332686
105	0xbdd6af1f	-0.104826204
106	0x3e076b5f	0.13224553
107	0xbde89aeb	-0.11357673
108	0x3c4d6b2b	0.012537758
109	0xbe1a3b5e	-0.1506171
110	0xbe053987	-0.13010226
111	0x3cef76b6	0.02923141
112	0x3e01c5a6	0.12673053
113	0x3dc9db2e	0.09856258
114	0xbda3eb63	-0.08003881
115	0xbdec13ba	-0.115272
116	0x3d123383	0.035693657
117	0xbcd76ec3	-0.026297932
118	0xbe1b8f33	-0.15191345
119	0x3d1ae189	0.037812743
120	0xbd857b71	-0.06517685
121	0x3d53e5e7	0.051732924
122	0x3d99a93a	0.075029805
123	0xbdf2cb7c	-0.11855218
124	0xbd0ca6d6	-0.034338795
125	0x3de1095e	0.10988115
126	0x3d569edf	0.052397605
127	0x3e1c3a75	0.15256675
128	0x3d8c675e	0.06855653
129	0xbd21aee4	-0.03947343
130	0xbe04fac0	-0.12986279
131	0xbe0599a6	-0.13046893
132	0xbd98ec70	-0.07466972
133	0x3e0ed8bf	0.1394987
134	0xbe1f2362	-0.15540841
135	0x3c7b18af	0.015325709
136	0x3c3ce9bf	0.011530339
137	0x3ca30ed6	0.019904535
138	0x3df8271e	0.12116836
139	0xbda13107	-0.07870679
140	0x3c11c2bd	0.008896527
141	0xbdb11aab	-0.08647665
142	0x3dac7ce5	0.08422259
143	0xbe06c6bc	-0.13161749
144	0x3dad73ea	0.084693745
145	0x3e34d171	0.1765802
146	0xbde24f83	-0.11050322
147	0x3cbc7f7f	0.023010014
148	0x3a012800	0.000492692
149	0xbd1edac9	-0.03878287
150	0x3c0f4897	0.008745334
151	0xbd13a14c	-0.036042497
152	0x3b387dc0	0.0028151125
153	0xbe0beebc	-0.13665289
154	0xbddcd678	-0.10783094
155	0xbda84623	-0.082165025
156	0xbbb49b30	-0.005511664
157	0xbe0d3d2b	-0.13792865
158	0xbe2ccd5d	-0.16875215
159	0xbd802f1e	-0.06258987
160	0xbd48e9f0	-0.049051225
161	0x3da9bc7a	0.08287902
162	0xbc7fb02a	-0.015605966
163	0xbdefb8d4	-0.11705175
164	0xbe3c6057	-0.18396126
165	0xbdf27e8b	-0.118405424
166	0x3dd799bc	0.105273694
167	0x3e0e9214	0.13922912
168	0xbe3168f3	-0.17325191
169	0x3c913908	0.01772739
170	0xbe2aca90	-0.16678834
171	0xbc6b1e00	-0.014350414
172	0xbdfd5359	-0.12369413
173	0xbe0acf6b	-0.13555686
174	0xbdc217fe	-0.094772324
175	0x3dd2fc00	0.103019714
176	0xbe218f08	-0.15777218
177	0xbe2871ed	-0.16449709
178	0xbcd73b02	-0.026273254
179	0xbd85e8a6	-0.06538515
180	0x3e16d26b	0.14728706
181	0xbcc39d08	-0.02387859
182	0x3d091872	0.03347058
183	0xbd3310ec	-0.04371731
184	0x3e11830d	0.14210148
185	0xbe1603d5	-0.146499
186	0x3e11d34e	0.14240763
187	0xbddc82bb	-0.10767122
188	0x3bf2c0c0	0.0074082315
189	0xbdc8adce	-0.097987756
190	0x3d79f738	0.06102678
191	0x3e22de77	0.15905176
192	0xbdaadfe1	-0.08343483
193	0xbddb3e32	-0.10705222
194	0x3d0533b0	0.032519996
195	0x3da6287e	0.08113192
196	0x3e2927bd	0.16519065
197	0x3d4cbe1c	0.04998599
198	0xbe018c28	-0.12651122
199	0x3daa002a	0.083008125
200	0xbdfff552	-0.12497963
201	0x3d2c6f51	0.042098347
202	0x3c93e400	0.018053055
203	0x3b9ab2d3	0.0047210245
204	0xbddc6242	-0.10760929
205	0x3df96482	0.121773735
206	0x3e27495b	0.16336577
207	0xbe08c3af	-0.13355897
208	0xbdfb546b	-0.12271961
209	0x3dd4d016	0.10391252
210	0x3d73d51d	0.059529413
211	0xbe20d013	-0.15704374
212	0xbe1ee27e	-0.15516087
213	0x3d570ff6	0.052505456
214	0x3d35fb40	0.044429064
215	0xbbe33791	-0.0069341143
216	0xbcca4184	-0.024689443
217	0xbdf264a9	-0.11835606
218	0xbe091b8e	-0.13389418
219	0xbdb042be	-0.0860648
220	0xbe2e1395	-0.16999657
221	0x3e1838e2	0.14865449
222	0x3dade096	0.08490102
223	0x3d91b9a0	0.07115483
224	0xbdf4b4a4	-0.11948517
225	0x3dca754a	0.09885652
226	0xbd8bd8c0	-0.06828451
227	0xbdb03344	-0.08603528
228	0x3d96a402	0.07355501
229	0xbcefdc70	-0.029279917
230	0x3d3ef32e	0.046618633
231	0x3d1b7b19	0.037959192
232	0xbe24957c	-0.16072649
233	0x3dff45e2	0.12464501
234	0xbe153047	-0.14569198
235	0xbb673940	-0.0035281926
236	0x3dd48822	0.10377528
237	0x3e1f9f1e	0.15588042
238	0xbdd50fad	-0.104033805
239	0xbe3e4b68	-0.18583453
240	0x3df38466	0.118904874
241	0xbdf8e02a	-0.12152131
242	0x3db7dbea	0.08977492
243	0x3e253c4c	0.16136283
244	0x3d8dd676	0.06925671
245	0x3c57f0ef	0.013180002
246	0xbe0a4ef5	-0.13506682
247	0xbe315ae2	-0.17319825
248	0xbdc7a93c	-0.09749076
249	0xbd8e0966	-0.06935386
250	0x3df7f31a	0.12106915
251	0xbe26a0ff	-0.16272353
252	0xbdff33a0	-0.124610186
253	0x3b855f60	0.0040702075
254	0xbe23a446	-0.15980634
255	0x3c47c373	0.012192595

arith.constant2 f4 [3]
0	0x3bd92b59	0.006627482
1	0xbc2c24ba	-0.010506803
2	0xba134c58	-0.0005618981

arith.constant3 f4 [64]
0	0xbca34d82	-0.01993442
1	0xbc358d0c	-0.0110809915
2	0xbca4058e	-0.02002218
3	0x3c62659f	0.013818174
4	0xbb1166a4	-0.0022186423
5	0x3d334123	0.04376329
6	0x3c17565a	0.009236896
7	0x3d11fae8	0.035639673
8	0x3c946108	0.018112674
9	0x3cdf38dd	0.027248794
10	0x3ccd59d5	0.02506725
11	0x3c95f7df	0.01830667
12	0x3c293433	0.010327387
13	0x3cd167a9	0.025562124
14	0xbd1b0c31	-0.037853424
15	0x3c3c242d	0.011483234
16	0x3cc5d445	0.02414907
17	0xb9cb6756	-0.00038796169
18	0x3e22a9fb	0.15885155
19	0x3cf214e7	0.029550983
20	0x3bfb2282	0.0076640258
21	0xbcbd72b7	-0.02312599
22	0x3c47eb4b	0.012202094
23	0x3ce0e8eb	0.027454814
24	0x3d0bd2dd	0.03413664
25	0x3db57df8	0.08861917
26	0xbc3f36f8	-0.01167082
27	0x3c66d047	0.014087743
28	0x3d02a67a	0.031897046
29	0xbd0442a9	-0.032290135
30	0xbba8e46c	-0.005154183
31	0x3be3e441	0.0069547
32	0xbc270398	-0.010193728
33	0x3c5746fb	0.013139482
34	0x3c23aa0a	0.009989271
35	0xbc157c96	-0.009123942
36	0xbc955ba3	-0.018232172
37	0xbb104038	-0.0022010934
38	0xbc0219e0	-0.007940739
39	0xbcf9b583	-0.03048206
40	0xbcf389fb	-0.02972888
41	0xbc3d55fe	-0.011556147
42	0x3ccf6872	0.025318358
43	0xbd2764ba	-0.040867545
44	0xbc87af6c	-0.01656314
45	0xbc124618	-0.008927844
46	0x3bf1f634	0.007384086
47	0x00000000	0.0
48	0xbaf0949b	-0.0018354835
49	0x3da00158	0.07812756
50	0x3b4aa43d	0.0030920648
51	0xbc86c375	-0.016450623
52	0x3d204062	0.0391239
53	0x3d0faaa6	0.035074852
54	0x3dd33957	0.10313671
55	0x3cad1c21	0.021131577
56	0xbcfb011d	-0.03064018
57	0x3cb9d287	0.022683395
58	0x3d0c8f5b	0.034316402
59	0x3c8e940a	0.017404575
60	0x3d1b869c	0.03797017
61	0x3c48782a	0.012235681
62	0x3cab23fc	0.020891182
63	0x3ba2b99d	0.0049659745

sequential_9_1/dense_45_1/Add/ReadVariableOp f4 [128]
0	0xbd0f5fbc	-0.03500341
1	0x3bb1873e	0.0054177335
2	0xbcffeb5f	-0.031240163
3	0x3bc29a14	0.0059387777
4	0x00000000	0.0
5	0xbcefc669	-0.029269414
6	0x3c4a4d53	0.012347537
7	0xbcdb82fa	-0.026795853
8	0x3c0fff6f	0.008788927
9	0x3a93977c	0.0011260356
10	0xbd26d0f7	-0.04072663
11	0xbbe0e9fa	-0.0068638297
12	0x3ca843a9	0.020540075
13	0x3e3f48f2	0.1868017
14	0xbaa32311	-0.0012446364
15	0xbc330c8b	-0.010928283
16	0x3cf7f130	0.030266374
17	0xba9c27d3	-0.0011913724
18	0xbc90f48e	-0.017694738
19	0xbbdd21d9	-0.0067484197
20	0x3dd66ea9	0.104703255
21	0xbd3fa1af	-0.046785053
22	0x3bc47491	0.005995341
23	0x3c875a09	0.016522424
24	0x3c7c852e	0.015412612
25	0x3bec10e5	0.0072041624
26	0xbc0a7b96	-0.008452317
27	0x3cff610d	0.031174207
28	0xbb645f12	-0.0034846705
29	0x3be11cf0	0.0068699047
30	0xbbbd1cb0	-0.005771242
31	0x3c185c25	0.009299313
32	0x3bf9dbf2	0.0076250965
33	0x3ae7dba7	0.0017689363
34	0x3c495c77	0.012290112
35	0xbbda55ac	-0.006663045
36	0x3d336144	0.04379393
37	0xbb66076e	-0.0035099643
38	0x3ccc111b	0.0249105
39	0x3c0ccf0c	0.008594286
40	0xbc3425de	-0.010995356
41	0xbc92f3a5	-0.017938444
42	0xbd096e75	-0.033552606
43	0x3d09a5be	0.03360533
44	0xbc7027f2	-0.014657961
45	0xbbb9ccec	-0.0056701805
46	0xbd510aa3	-0.051035535
47	0x3c35a2be	0.011086164
48	0x3c0ca327	0.00858382
49	0xbcba7235	-0.022759536
50	0x3c232e77	0.009959809
51	0x3d38e079	0.04513595
52	0x3bfe7c3c	0.0077662747
53	0x3d071874	0.032982305
54	0x3c314d13	0.010821599
55	0xbcfb4fc6	-0.030677687
56	0xbbf6f933	-0.007537031
57	0xbc8a2ed7	-0.016868038
58	0x3ad7e63a	0.0016471811
59	0x3b403264	0.002932691
60	0x3c93ba6e	0.018033233
61	0x3d86f777	0.06590169
62	0xbcd524a3	-0.026018446
63	0x3bd76e88	0.0065744556
64	0x3e2bfe5d	0.1679625
65	0x3cfc337a	0.030786265
66	0x3bdc3ff2	0.00672149
67	0x3bbd02de	0.005768164
68	0x3e2bf693	0.1679328
69	0xbc46171b	-0.01209047
70	0x3baf7cfa	0.0053554745
71	0xbb687611	-0.0035470764
72	0xbaeab2f3	-0.0017906114
73	0x3c6babfa	0.014384264
74	0xbc31f6db	-0.010862078
75	0xbd012d3f	-0.03153729
76	0xbbaf9079	-0.0053577987
77	0x3ce93d4a	0.028471608
78	0x3cafbbd3	0.021451866
79	0xb9b4b0b2	-0.00034463924
80	0xbc09e6db	-0.008416857
81	0xbd0a1ad7	-0.033717003
82	0x3ba25dc4	0.0049550254
83	0x3cd9e80a	0.026599903
84	0x3c9ebd05	0.01937724
85	0x3c65fd49	0.014037439
86	0x3d39af43	0.04533316
87	0x3be5f225	0.0070173913
88	0x3c8ce349	0.017198222
89	0xb9fb0e32	-0.00047885027
90	0x3c28bab1	0.010298417
91	0xbc7d2d02	-0.015452625
92	0xbc2d524b	-0.010578702
93	0x3b763262	0.0037566652
94	0x3cac864e	0.021060135
95	0xbcb3a1d9	-0.02192776
96	0x3c8074e9	0.015680747
97	0xbc4a946d	-0.012364489
98	0xbd09b954	-0.03362401
99	0xbd023f11	-0.031798426
100	0xbcde2a3e	-0.027119752
101	0x3d2c013f	0.041993376
102	0xbc45f527	-0.012082375
103	0xbd14ed02	-0.03635884
104	0xbc18784a	-0.009306023
105	0x3c4d2b52	0.012522535
106	0x3c1c0699	0.009523057
107	0xbcabe288	-0.020982042
108	0xba0f913b	-0.0005476658
109	0x3d0f53ff	0.034992214
110	0xbcfa400c	-0.030548118
111	0x3c85503c	0.01627361
112	0x3d08ed8d	0.03342967
113	0x3bc6b8b8	0.0060645007
114	0x3cecf249	0.028924124
115	0xbcf291a1	-0.029610457
116	0xbd2c3e4a	-0.04205159
117	0x3cec78a8	0.028866127
118	0xbcad27e8	-0.021137193
119	0xbcd2cca7	-0.025732351
120	0xbbc8f9cc	-0.0061332937
121	0x3c9915fe	0.018687245
122	0xbba73c13	-0.005103597
123	0xbc3e8d8f	-0.01163043
124	0x3d48c623	0.049017083
125	0xbc57f0ab	-0.013179938
126	0xbc180df6	-0.009280672
127	0x3de8c90b	0.11366471

sequential_9_1/dense_45_1/MatMul f4 [128, 99]
0	0x3e357265	0.1771942
1	0xbe12bab6	-0.14329037
2	0xbce2e861	-0.027698698
3	0xbd354e6a	-0.044264235
4	0xbe16d641	-0.14730169
5	0x3df2b6c5	0.11851267
6	0xbdcf8570	-0.10132873
7	0xbe2dbfa7	-0.16967641
8	0x3dd0b401	0.10190583
9	0x3c530a72	0.012880908
10	0xbe6ff2ff	-0.2343254
11	0x3d2fa7dc	0.042884693
12	0x3e06fc28	0.13182127
13	0xbe49e9da	-0.19718114
14	0xbd507cc7	-0.050900247
15	0x3d77a3c6	0.06045892
16	0xbd24fc3c	-0.040279612
17	0x3cc826e5	0.024432609
18	0x3d03d903	0.03218938
19	0xbdd99fa2	-0.10626151
20	0x3de10886	0.10987954
21	0x3ca8640c	0.020555519
22	0x3da6f80f	0.08152782
23	0x3e3c0f2c	0.18365163
24	0x3c6c04dd	0.014405456
25	0x3d264d26	0.04060092
26	0xbbdf2699	-0.006810021
27	0x3e2ea803	0.17056279
28	0xbe55ba0c	-0.20871753
29	0xbdfa6036	-0.12225382
30	0x3dc055c6	0.0939136
31	0xbe06c07a	-0.13159361
32	0x3d6ce0af	0.057831462
33	0x3ddd7b4b	0.10814532
34	0x3df5fe73	0.12011423
35	0xbe010e2a	-0.1260306
36	0x3d49c8c9	0.04926375
37	0xbdf3302c	-0.118744224
38	0xbe1949a6	-0.14969501
39	0xbbbeb47c	-0.0058198553
40	0x3d67c27a	0.05658195
41	0xbbccacd6	-0.0062461896
42	0xbde6317a	-0.11239906
43	0xbd7916a4	-0.060812607
44	0xbde8f7b1	-0.113753684
45	0xbe36c75e	-0.1784949
46	0x3db3882f	0.08766209
47	0xbdc567e2	-0.09638955
48	0xbd5531d3	-0.05204947
49	0x3dfbccb6	0.12294905
50	0x3b274ecf	0.0025529151
51	0xbe2aa8d3	-0.16665964
52	0xbdb97125	-0.09054784
53	0xbcb67fc1	-0.022277715
54	0x3d08cfe6	0.033401392
55	0x3e03d0f7	0.12872683
56	0xbd5186d3	-0.05115397
57	0x3da1bfd4	0.078979164
58	0x3e050ac9	0.12992395
59	0xbd1b5dd4	-0.03793128
60	0xbcea0e4e	-0.028571274
61	0x3e3903c8	0.18067849
62	0xbe17b91c	-0.14816707
63	0xbdf51b90	-0.11968148
64	0xbd3ff6ef	-0.046866354
65	0xbddce729	-0.10786278
66	0xbda45ffb	-0.08026119
67	0xbd3015c1	-0.042989496
68	0xbe2dcbfe	-0.16972348
69	0x3a7aefcd	0.0009572476
70	0x3e0fbb8c	0.14036387
71	0xbe03f14e	-0.12885019
72	0x3d970016	0.07373063
73	0xbd07ea74	-0.033182576
74	0xbd16bc98	-0.03680095
75	0xbc97db7b	-0.018537274
76	0xbc831b12	-0.016004119
77	0xbe138b21	-0.14408542
78	0x3e25a3ae	0.1617572
79	0x3cae7565	0.021296212
80	0xbdcd0e3c	-0.100124806
81	0xbd6cfed5	-0.057860214
82	0x3e173e76	0.1476992
83	0xbd3de5fd	-0.046361912
84	0xbd375eeb	-0.044768255
85	0xbd60cede	-0.054884784
86	0xbd89f1a1	-0.0673554
87	0x3deb7621	0.11497141
88	0x3dd2aca6	0.10286836
89	0xbc8acf28	-0.016944483
90	0xbd5394d8	-0.05165562
91	0x3e178b36	0.14799199
92	0xbda738b6	-0.08165114
93	0xbda1c00a	-0.07897957
94	0x3d0cc24f	0.034364995
95	0xbcea6075	-0.028610447
96	0xbe18fe26	-0.149407
97	0xbdb8809a	-0.09008904
98	0xbdc3f895	-0.09568898
99	0x3de9a758	0.114088714
100	0xbdde7fd1	-0.10864223
101	0x3d8471dc	0.064670295
102	0xbce3a7cd	-0.027789975
103	0xbe453247	-0.1925746
104	0x3c081ca0	0.008307606
105	0xbdba924e	-0.09109937
106	0x3c9a5b4a	0.018842358
107	0xbcc93be9	-0.0245647
108	0x3d54c7d5	0.051948387
109	0xbe120e95	-0.14263375
110	0x3cfb811c	0.030701213
111	0x3cd2a94b	0.02571549
112	0xbe03803f	-0.12841891
113	0x3de0a285	0.10968498
114	0xbe0d424c	-0.13794822
115	0x3dab575d	0.083662726
116	0x3da0d6ae	0.07853447
117	0xbe0ca902	-0.13736346
118	0x3c5dc81b	0.013536478
119	0x3da7b28c	0.08188352
120	0x3d951b81	0.072806366
121	0xbdd66576	-0.10468571
122	0x3cad2f0d	0.0211406
123	0x3e087a0c	0.13327807
124	0x3bb22c34	0.0054373983
125	0x3bbd2f8d	0.0057734908
126	0xbe0f22fb	-0.13978188
127	0xbe16e508	-0.14735806
128	0xbd9d0818	-0.076675594
129	0xbb61031f	-0.0034334136
130	0xbe0983e6	-0.13429222
131	0x3db3520b	0.08755883
132	0xbc584fee	-0.0132026505
133	0xbdd08c75	-0.1018304
134	0x3cb456bd	0.022014016
135	0x3dc76c16	0.09737413
136	0xbdcb6502	-0.09931375
137	0x3dfcb513	0.12339225
138	0xbd0f8d79	-0.03504703
139	0xbc939cfb	-0.01801919
140	0x3d980daa	0.07424481
141	0x3df84471	0.12122429
142	0x3e26e9f9	0.16300191
143	0xbc9b8068	-0.018982127
144	0xbdb8521b	-0.090000354
145	0x3dadaa1e	0.08479713
146	0x3c89bebf	0.016814588
147	0x3dab3dbf	0.083613865
148	0xbd460971	-0.048348848
149	0x3d517c36	0.051143847
150	0x3d8ed6f6	0.06974594
151	0x3e0e3bbc	0.13889974
152	0xbe30cd81	-0.17265894
153	0x3d0b8fc5	0.034072656
154	0x3e28dd57	0.16490684
155	0xbc96ccc3	-0.018408185
156	0xbe2ce7d8	-0.16885316
157	0x3e219f35	0.15783389
158	0x3d966298	0.07343024
159	0x3d261d33	0.04055519
160	0x3e01f465	0.12690885
161	0x3bcaec59	0.0061927256
162	0xbcdade23	-0.026717251
163	0x3d24a19d	0.04019319
164	0x3cba4c8c	0.022741579
165	0xbcad8aed	-0.021184409
166	0x3e3cb28b	0.18427484
167	0x3e0638e3	0.13107638
168	0xbd49b885	-0.049248237
169	0x3dd36b73	0.10323229
170	0xbd4de536	-0.05026742
171	0x3d2fc4fa	0.04291246
172	0x3e0a22a7	0.13489781
173	0x3d283ee6	0.04107561
174	0xbd57e481	-0.052708153
175	0xbce58ac8	-0.028020278
176	0xbe091607	-0.13387309
177	0x3b63c26f	0.0034753343
178	0x3e26b1b6	0.16278729
179	0xbd6d80a8	-0.057984024
180	0xbe199a22	-0.15000203
181	0x3d9bbf78	0.07604879
182	0x3e3ab6d6	0.18233809
183	0x3dbc46fb	0.09193226
184	0xbcaa1220	-0.020760596
185	0xbbfbb0bd	-0.007680981
186	0xbda34498	-0.079720676
187	0x3cbcd751	0.02305189
188	0x3db1dcea	0.08684714
189	0xbd663d24	-0.056210652
190	0x3e0efd7f	0.13963889
191	0x3ab00847	0.0013430201
192	0x3d24d8a2	0.04024566
193	0x3d92cc06	0.07167821
194	0x3d0c633c	0.034274325
195	0xbe05e80a	-0.13076797
196	0xbda6461d	-0.08118842
197	0xbd4f001d	-0.050537217
198	0x3df5996d	0.11992154
199	0xbdeb732f	-0.11496579
200	0x3ca90350	0.020631462
201	0xbd317373	-0.04332299
202	0xbe311c6e	-0.17296001
203	0xbe1daa69	-0.15397038
204	0x3e0b9283	0.13630109
205	0x3de166be	0.11005925
206	0x3dbfa553	0.09357705
207	0x3bc94354	0.0061420593
208	0xbc7cd60c	-0.015431892
209	0xbe163f49	-0.14672579
210	0x3d8bdf57	0.06829708
211	0xbd536c24	-0.051616803
212	0x3d06fece	0.032957844
213	0xbd86aec1	-0.065763004
214	0x3da11d73	0.07866945
215	0xbd578fc4	-0.05262734
216	0x3c87ffd6	0.016601484
217	0xbe3016a5	-0.17196138
218	0xbdb51291	-0.08841432
219	0xbde904a6	-0.1137784
220	0xbb3fd3c3	-0.0029270507
221	0x3e0621d2	0.13098839
222	0xbddd3660	-0.10801387
223	0x3d7628c1	0.06009746
224	0xbdbec9ff	-0.093158714
225	0x3d12978f	0.03578907
226	0x3da25803	0.07926943
227	0xbd0ca839	-0.034340117
228	0xbd76c31a	-0.060244657
229	0xbd5cbf35	-0.053893287
230	0x3e0b64ad	0.13612624
231	0x3d267c0c	0.040645644
232	0xbe54ec2d	-0.20793219
233	0x3d03aa10	0.032144606
234	0xbce1f0ef	-0.027580706
235	0xbd87059f	-0.06592869
236	0xbd46cb97	-0.048534002
237	0x3de75bcd	0.112968065
238	0xbe123939	-0.14279641
239	0xbe09717c	-0.13422197
240	0xbe0101ed	-0.12598391
241	0xbdfd0595	-0.1235458
242	0x3dc44d68	0.095850766
243	0x3e17c42e	0.1482093
244	0x3dd7ac4b	0.10530909
245	0xbd9240e9	-0.07141287
246	0xbe24fd8f	-0.1611235
247	0x3d887e06	0.06664662
248	0xbdeefcd3	-0.11669316
249	0xbcd17da5	-0.025572607
250	0x3e05c392	0.13062885
251	0x3c6217c8	0.013799615
252	0xbcc59139	-0.0241171
253	0xbe129de8	-0.14318049
254	0x3d6ceceb	0.05784313
255	0xbddf3f39	-0.10900731
